RNN/char-rnn-classification/modelSave/net.pt (torch_old, 344977 bytes, 4 tensors)

i2o.weight f4 [18, 313]
00000000: e025 3e3f dece 3640 fd96 b9bf db80 003f
00000010: f7b0 84c0 a852 273f 792e 223e 999e ba3d
00000020: d140 613f 725a a7bf 148b 5ac0 f86c 0a3e
00000030: df9b 3e3f a9b0 33bf 89c7 64c0 3687 85bf
00000040: 8ae2 8b3c e33d b3be f07a 843f 0096 40c0
00000050: d2ef e6bf 7950 5bc0 75c9 01c0 3379 d2bf
00000060: 44c9 573f 8a65 ddbf 00c6 91bb c7f7 403d
00000070: fcd6 c2bc 443b 673c 99b4 14bd 175f 1e3d
00000080: 4593 003d 20d4 f7bb 74cf 0e3c df45 5ebd
00000090: 891b 5fbd 03d2 4e3d 9893 10bc 67a1 413d
000000a0: 916b 163d dfb8 5b3d 5add c7bc 9432 323c
000000b0: d6f8 a7bc 48f5 d03b 86bf 98bc 2c95 313c
000000c0: ed56 493d c5a7 623d b8a7 acbb ffdb e2bc
000000d0: 4677 a2bc 2ce9 4cbd e2d6 b8bc 3e41 993c
000000e0: f486 14bd 7584 393e 9f06 a93d 5fa4 a7bd
000000f0: 9b7a cd3e 7fe9 823d 1efd 11be eb1a f93c
00000100: 8948 b83e 7762 643d 26af 67bc 89b3 263c
00000110: 3a76 bc3d d9de 193e 094f dbbd b7ae e8bd
00000120: 3f4b acbc 458a 253b 4fc6 9fbd 34e9 aabd
00000130: 21df dcbc 2518 e5bd 33bb acbd 66f5 35be
00000140: 4ff3 4d3c ae23 09be 416e 24bd b246 483e
00000150: 3377 98bd 861e 1e3e 7a18 9ebd 2102 e13b
00000160: e747 c9bd b18f 91bc 5bcd 833e 6c53 cb3d
00000170: 65ca 633d b3ac 643e 3a38 7f3e 9e83 e1bd
00000180: e305 28bd 0d0b 1cbe ef43 b93d 97ea 4dbd
00000190: 8ed7 d8bc ed3a 15bc 0c4d 713d 541c 48bc
000001a0: 1ee0 46be b669 dbbc fa3b 3abc 1f8b 0fbd
000001b0: 95c0 a4bd d08a b0bc f003 47bd dd83 3e3d
000001c0: f9b1 c63c 9a53 a7bd 7170 b6bd be50 afbd
000001d0: cfdd 4f3e 36f4 073e c261 423c 5914 27bd
000001e0: 8b80 48bd d9fd 573c 3f5e e4bd b498 6c3d
000001f0: 6840 0cbe 7067 163c 871c 683d 9f53 cc3d
00000200: 4acc 433d a0b3 d6bd d569 f23d 0167 0bbe
00000210: 72fd 04be fbc4 63bd 6e61 473d 5318 773e
00000220: 670f d6bd 3b98 523d 8b22 6abd 8d0c 083c
00000230: bf9b 4dbd 3cf1 543e 0100 8fbe 6bd8 ce3d
00000240: 7e64 663e 42ab 7d3e 42d6 81bd 7b2e 8c3d
00000250: cacf a13d bf6d 42bc d1a1 45bc f9df 95bc
00000260: 5010 6d3d c263 87be d1f2 523d bc3a e0bd
00000270: a1f9 56be 9990 143d 06d2 3b3e f529 40be
00000280: 2104 353c 5283 74be 1f59 743e 9551 b0bd
00000290: 80e2 cbbc c308 d73d ccc6 80bd d3e9 bdbd
000002a0: 5aaf 37bd c85c f33d dbb5 c7bc cc19 9bbe
000002b0: a94c 8e3d 9dc0 093e 7abb 843d 6717 eebd
000002c0: 69f7 eb3c 1ad2 ccbd 5eb4 0dbc 39b3 08be
000002d0: 7c24 22be 178a 943d e680 be3c 7e3d 13be
000002e0: 8a23 8bbe 75eb 183d 0891 88bd 1740 da3d
000002f0: ef3c a6bc f093 b6bc bab2 22be 4823 a53e
00000300: 0307 0abe 783f 173e ad9e e53c 9f8d 76bd
00000310: d3b9 4bbd df9a a83d 6fc4 be3d 132c 303c
00000320: 70bd e3bc 18ad ca3b eba2 36be 016e ae3d
00000330: 80b7 af3d 49c1 473e 1220 21be b223 fa3d
00000340: 45f5 20be 41a2 f23d 1f0f fabc a7d8 303e
00000350: 453f 57bc 3203 323e 6ee8 353e 0cac 743d
00000360: a440 f5bd 41a8 50bd 09fc cc3d 9480 92be
00000370: 24e1 fa3d 59f6 f7bd eb38 7dbe c0ed c2bd
00000380: 8b35 e33d 1cba dbbd 524d 863d 2946 12bf
00000390: 3bf7 6fbc 5c9f 713d c166 08be 7258 083b
000003a0: 4ca5 85be 7a41 ac3d e3ff 7bbe e10b 213e
000003b0: 5dda f73d e07b 93bd b740 973c 4e34 eebd
000003c0: 016a 1f3d 4b05 c5bd 4f93 84bd b6ab 07be
000003d0: 3dd7 37bd f1dd a83c 9eb9 933d a719 87bd
000003e0: 84c8 1c3d 1867 a0bd 11b9 f8bc 421c 9fbd
000003f0: 0c43 c33d b597 babd c7b7 a13d 25f9 2f3e
0.7427654 2.8563762 -1.4499203 0.5019662 -4.146602 0.653605 0.1583804 0.09112281
0.87989527 -1.3074477 -3.4147387 0.13518131 0.7445659 -0.70191437 -3.5746787 -1.0431888
0.017075796 -0.35008153 1.0350018 -3.0091553 -1.8041937 -3.4267867 -2.027921 -1.6443237
0.8429148 -1.7296612 -0.0044486523 0.0471113 -0.023784153 0.014113251 -0.036305044 0.038664903
0.031390447 -0.007563129 0.008716453 -0.054265853 -0.05446962 0.05049325 -0.008824252 0.047273066
0.036723677 0.053643104 -0.02439754 0.010876317 -0.020504396 0.006376896 -0.018646013 0.010838788
0.049155165 0.05533578 -0.005269017 -0.027692793 -0.019832265 -0.050027058 -0.022563402 0.018707868
-0.036261514 0.18116935 0.08253216 -0.08185648 0.40132603 0.06392192 -0.14256713 0.030408343
0.3599284 0.055757966 -0.01414088 0.01017464 0.092022374 0.15026416 -0.10708434 -0.11361449
-0.021031974 0.0025259417 -0.07801496 -0.08345261 -0.026961865 -0.11186246 -0.08434143 -0.17769393
0.012570216 -0.13392517 -0.04014421 0.19558218 -0.074446104 0.15441331 -0.07719512 0.006866709
-0.098281674 -0.017768713 0.2574261 0.09928021 0.05561294 0.22331505 0.24923792 -0.11011432
-0.04102124 -0.1523859 0.090461604 -0.05027255 -0.026469972 -0.009108287 0.05891137 -0.012213785
-0.19421431 -0.026783805 -0.011366839 -0.035044786 -0.080445446 -0.021550566 -0.04858774 0.046512473
0.024254786 -0.081702426 -0.08908165 -0.08560322 0.20299457 0.13276753 0.011864128 -0.04079089
-0.048950713 0.013183081 -0.111507885 0.057762817 -0.13696444 0.009179935 0.05666783 0.09976887
0.047802247 -0.104834795 0.11836592 -0.13613512 -0.12987307 -0.055607777 0.0486769 0.24130373
-0.104521565 0.05141471 -0.05716185 0.008303774 -0.05019736 0.20795149 -0.2792969 0.10099872
0.22499272 0.24772361 -0.063396946 0.06844803 0.07900961 -0.011866986 -0.012062506 -0.018295275
0.057876885 -0.26443297 0.0515011 -0.10948703 -0.20993663 0.03627071 0.18341836 -0.18766005
0.011048348 -0.2387822 0.23862122 -0.086093105 -0.024888277 0.10499718 -0.062879175 -0.09273114
-0.044844963 0.11882931 -0.024378708 -0.3029312 0.069482155 0.13452382 0.06481071 -0.116255574
0.028804498 -0.10001011 -0.00864896 -0.13349618 -0.1583423 0.07252901 0.023254823 -0.14378926
-0.27175552 0.037333924 -0.066682875 0.106567554 -0.020292727 -0.022287339 -0.15888491 0.3225348
-0.13479237 0.14770305 0.028029764 -0.060193654 -0.049737763 0.08232664 0.093148105 0.010752696
-0.027800292 0.006185185 -0.17835586 0.08517075 0.08579922 0.19507326 -0.1573489 0.122138396
-0.15718563 0.11847354 -0.030524788 0.17270146 -0.013137643 0.17384031 0.17764446 0.05973439
-0.1197522 -0.05094171 0.100090094 -0.28613722 0.122499734 -0.12107534 -0.24728744 -0.095180035
0.11094197 -0.10728857 0.065577164 -0.57138306 -0.014646347 0.058989868 -0.13320448 0.002080467
-0.26102674 0.08410926 -0.24609332 0.15727188 0.12102196 -0.07201362 0.018463476 -0.1163107
0.038919453 -0.0962015 -0.064734094 -0.13249096 -0.044883 0.020613642 0.07213138 -0.0659669
0.038277164 -0.078321636 -0.030361684 -0.077690616 0.095342726 -0.09110967 0.07896381 0.17184885

i2o.bias f4 [18]
00000000: 7913 043f 6144 65bf 21fe 913d 62c7 eabe
00000010: 1e90 b23f 3360 b7be a29c c5be e895 bbbf
00000020: cb2d 31bf 75e7 9fbe 4615 9e3c b8cd a7bf
00000030: 33cc 83bf 1b89 05c0 c5d6 4e3f 1642 29bf
00000040: 9dfb 82bf 0871 47bf
0.5159221 -0.8955746 0.07128549 -0.45855242 1.3950231 -0.35815582 -0.38596064 -1.4655123
-0.692105 -0.31231275 0.019297253 -1.3109655 -1.0296692 -2.0864933 0.8079646 -0.66116464
-1.0233036 -0.77906847

i2h.weight f4 [256, 313]
00000000: d326 ba3d 2d5a d13d 73e7 57bd ab60 86be
00000010: 03f0 7bbd 8170 f0be 380e 6abe b316 0abd
00000020: a76c 25be 2de1 423e 0f1c a5be 1043 2abe
00000030: 78e3 643e bde5 67be 83a8 b8bd da36 24bd
00000040: 1208 0f3f da56 aa3d 69e7 c53d 6403 293a
00000050: 30e7 a2bd 2ba4 ac3e fd6b 593e 8966 603e
00000060: 8ab1 58be cb91 0bbe a64d b43c 19f7 173e
00000070: 2f01 d9bd cda7 393d f994 2e3c ddec 86be
00000080: ad58 79be cd1b 0dbe 9623 bd3d dff0 25be
00000090: d3d8 5ebe 8ea1 ed3d 22aa e0bd 3329 f9bd
000000a0: e7a1 6ebe 4cb0 943b 7ef4 033d dc2a 083e
000000b0: 1638 be3d 73cd 99bd 9f71 afbd 5dbd 233d
000000c0: 0646 eebe 5090 1dbd 1b10 d43e 955d c7bc
000000d0: 5a45 1dbf 9941 4b3d 30f6 25bc f419 393c
000000e0: aada 073f f5a3 01bd bf0a 473d a770 253c
000000f0: c69d 89bd 9727 e23d eb80 683d bf12 013d
00000100: 1b0d a2bc fad0 38bd 858e b93b 6e1f 5bbc
00000110: a007 313c 9cc0 e0bc bb10 0bbb 6cc0 95bd
00000120: 8f77 16bb b7d2 28bd 80de b0bc b132 313d
00000130: acfa 993d cd4c 9abc 41cb 52bb a4ca 633c
00000140: 71ba 4cbc 63fb 6dbd 104b 5f3c 7240 cd3d
00000150: d35d 11bd 4afb 53bb 4b29 f3bc 75a8 73bb
00000160: 991c b83c bb0d d23c 6a1c 603c 7cda 3e3d
00000170: b7cb 43bd 674a 513d 9cd4 bd3c 6e86 81bd
00000180: 1742 4ebc c4b6 09bc 3313 32bd 0986 a93c
00000190: 9635 54bc 8966 e13c 7625 773d 14c4 223d
000001a0: 9cc7 3d3c 182c 1b3d 0ef0 053d 7039 80bb
000001b0: 7c44 5abd 6404 babc 91a8 e23a 5787 edbc
000001c0: f09f f33d 728f f73c 03e6 9f3c 8170 f93c
000001d0: 2962 0a3e d18b e33c fb31 f2bc ca7b 783d
000001e0: 10d3 6d3c f0a0 663d ad3a 2cbc d2ce 8f3d
000001f0: 3eb2 25bd 10c9 5c3d 5a57 ab3c 4e35 853b
00000200: 7e79 0bbd 91b0 873d 73e5 233d d74e 7abc
00000210: b9a2 26bd 857f 16bd ecd2 753c 1894 283d
00000220: 871f a13c bd79 143c a179 65bd 602b 683c
00000230: 263d a53c e601 3cbd 93fe 9d3d b108 04be
00000240: e879 0d3d 0e84 933d eb23 aebc 485f 4fbc
00000250: 2b6f 60bc e492 9b3c 64f2 4cbd 519f d0bd
00000260: 1e9e e13c 7243 d8bc 8280 7b3c a4c6 72bc
00000270: a1d6 d8bb b6c9 d43b 0833 5bbc 0909 8bbc
00000280: 0af0 34bd 8933 98bb 67c2 7d3c 01b3 18bd
00000290: 5fbc 8cbc 7731 8bbc 5713 0fbc c31b d73d
000002a0: 41ef d4bd dc93 25bd c8ca febb 861a c739
000002b0: f046 a73d c893 a53d 0dd7 9bbc 31eb bbbd
000002c0: d41e 42bc 15f0 c0bd 259b 1f3d 0bf1 173c
000002d0: 11e8 3ebd 370b 4d3d 7835 493d a6bb 9d3c
000002e0: 961e 033d 0761 de3d d863 9ebc ab80 683c
000002f0: 1aff c33d f895 dd3c e520 41bc 9f34 c7bb
00000300: 0c65 a13d 4bc7 c23b dfae 0c3d 3e0e 503c
00000310: 5727 71bc 8bda 983d 3101 223d 0f49 66bd
00000320: 3f62 4fbd 4e9e 8ebc 4e0e 713d 613d 683d
00000330: 5d2d 17bc aa67 b13d de80 333d 6e63 6fbd
00000340: 1a6b 953d 2de6 6f3d ec4d b33d 717d d63c
00000350: 5217 b63c 9bf5 2f3d f21f d3bc 9366 ab3c
00000360: 8f72 c3bc 796a 87bd c449 4a3c 1001 8abc
00000370: c1bd b6bd 0b2b 4e3d 0282 99bc 3494 6cba
00000380: ee52 8dbd f48b 0c3c 915b 3dbd ae7d 9239
00000390: 82cc 8f3c 41dc 2d3d cba5 883d f336 46bd
000003a0: c796 42bc dba0 bbbc 108b b5bd e230 11bd
000003b0: e90d 9abc 85e5 a23c 4c4f f2bb 3c94 1d3c
000003c0: c09e 04bd 6656 a8bd b788 03bd 1514 03bd
000003d0: 9980 243d 62c3 a63a 67ee 573a 5345 0abc
000003e0: c4a6 9bbd 0e3a 5d3c b0e5 2bbd bb88 cfb8
000003f0: f9ab cb3c 9a69 9cbc f16d 043c e40f cdbd
0.090894364 0.10222278 -0.05271096 -0.26245627 -0.06150819 -0.46960834 -0.22856987 -0.033713054
-0.16154729 0.1903121 -0.3224797 -0.16627145 0.22352397 -0.22646232 -0.09016516 -0.040091373
0.5587169 0.08317347 0.096632786 0.00064473436 -0.07954252 0.33719 0.212326 0.21914114
-0.21161476 -0.13629834 0.022009682 0.14840354 -0.10595929 0.045326043 0.010655635 -0.26352587
-0.24350233 -0.13780136 0.09235303 -0.16205166 -0.217624 0.1160308 -0.1096995 -0.12166061
-0.23303948 0.004537618 0.032215588 0.132976 0.09288041 -0.075098895 -0.085665934 0.039975513
-0.465378 -0.038467705 0.41418537 -0.024336616 -0.6143395 0.049623106 -0.010129496 0.011297692
0.5306803 -0.031650502 0.048594233 0.010097659 -0.06719546 0.110427074 0.05676357 0.03151202
-0.01978164 -0.04512117 0.0056627416 -0.013374193 0.010805041 -0.027435593 -0.002121969 -0.07312092
-0.0022959446 -0.04121658 -0.021590471 0.043261234 0.07518515 -0.01883545 -0.0032164606 0.013903294
-0.012495623 -0.05810107 0.013628736 0.100220576 -0.03548987 -0.0032345825 -0.029682776 -0.0037179266
0.022474574 0.025641313 0.013678649 0.04659508 -0.0478017 0.051096346 0.02317267 -0.063244686
-0.012588999 -0.008405391 -0.04347534 0.020693796 -0.012952229 0.027514713 0.06033846 0.039737776
0.011583235 0.037883848 0.032699637 -0.003913097 -0.053287968 -0.022707172 0.0017292668 -0.0289952
0.1189574 0.030219767 0.019518858 0.030449154 0.13514008 0.02777663 -0.029564848 0.06066493
0.014515653 0.056305826 -0.010512036 0.0702187 -0.040453188 0.053902686 0.020915676 0.0040651923
-0.03405141 0.06625474 0.04001374 -0.015277586 -0.04068253 -0.036742706 0.015003901 0.04115686
0.019668354 0.009062228 -0.056024197 0.014170498 0.02017076 -0.045900248 0.07714572 -0.1289394
0.034540087 0.07202922 -0.021257361 -0.012656994 -0.0136983795 0.018990941 -0.05003585 -0.10186637
0.027541216 -0.026399348 0.015350463 -0.014817867 -0.0066173826 0.0064937724 -0.013378866 -0.016972082
-0.04417423 -0.0046448153 0.015488244 -0.037280086 -0.017179666 -0.01699136 -0.008732638 0.10503342
-0.103971966 -0.040424213 -0.0077756383 0.00037976 0.08167827 0.08084828 -0.019023443 -0.091757186
-0.01184817 -0.09420792 0.038966317 0.009273778 -0.046608035 0.050059523 0.049123257 0.019254517
0.03201159 0.1085835 -0.019334719 0.014190833 0.09570141 0.02704905 -0.011787628 -0.006079271
0.07880601 0.0059441677 0.034346458 0.012698708 -0.014718852 0.07463559 0.039551917 -0.056222018
-0.050630804 -0.01740947 0.058851533 0.05669916 -0.009227124 0.086623505 0.04382407 -0.058444433
0.072958186 0.058569122 0.08755097 0.026182862 0.022227917 0.042958837 -0.025772069 0.020922935
-0.023858337 -0.06612105 0.012346689 -0.01684621 -0.089229114 0.050334018 -0.01873875 -0.00090247695
-0.06900583 0.008578289 -0.046229903 0.0002794093 0.017553572 0.04244638 0.066722475 -0.048392247
-0.011876768 -0.02290385 -0.08864415 -0.03544701 -0.018805461 0.019884834 -0.007394707 0.009617861
-0.03237796 -0.08219604 -0.032112803 -0.032001574 0.040161703 0.0012723024 0.0008237124 -0.00843938
-0.076001674 0.013502611 -0.041967094 -9.895997e-05 0.024862276 -0.019093323 0.008082853 -0.100127965

i2h.bias f4 [256]
00000000: 82e1 ba3d edba 2ebd 21fe 253d b446 47b9
00000010: 6a0f e1bc 7012 8cbc 1c5c 85bb 168f 77bd
00000020: 7e54 c93c 4d00 9a3a 680c ff3c 9659 313d
00000030: 423e 95bd f7bb b6bc 5346 01bd 1b0a c1bb
00000040: 6c19 d13a 8aa3 31bd b500 273c db1b e4bb
00000050: 61b4 59bd 6339 9cbc dc2f 63bd 296f 6f3c
00000060: 2820 b03c 80fe 38bd 0aec 83bd 625d 3dbd
00000070: 0ac8 e53c e3e1 973c f65b c83d f491 c73c
00000080: 649c d23d fcbf 663c e400 70bc 377e 48bd
00000090: b929 0ebd 9e55 713b 4316 6e3c a78d 833d
000000a0: d323 613c 6ab9 a93d b91a 783c e448 093d
000000b0: 0caf 853d 7d76 ebbc e25e b13c 926e b43d
000000c0: ccb0 3f3d ea6b 3e3c 906c b83c 33fa 6a3d
000000d0: 8f08 163d f819 213d 9ae1 803b 1857 abbd
000000e0: fdca 5c3d 24df 58bd f008 2ebd 03dd 66bd
000000f0: d40d 4c3d 662a 6bbc 791f 92bd 647a 74bc
00000100: b8b3 203d 2538 a938 e275 6bbc 714d 603d
00000110: 809d e4bd 9186 943c 78ea 5e3d 7db8 923c
00000120: 30a5 0f3c 37fb 9e3c c787 223d bd85 953d
00000130: 8d6f 013d 0f84 4abb 99d9 8abc cb88 cabd
00000140: f602 c3bc f87f 6cbc c1e1 24bc 8dd9 713d
00000150: d77a 85bc 44b8 503d f64c 493d 9bce 693d
00000160: 6288 2d3d 3201 65bd bb85 723d 637b e6ba
00000170: 0374 86bc c285 a2bc a5a0 ea3c bbcc 943c
00000180: a7f6 523d a08a 52bd a1f4 5d3d c3d9 f2bd
00000190: 9e0c c43d cac2 4abd bac0 0bbd 6be9 51bd
000001a0: 0293 903c 0835 693d ba0d ffbc 4909 a13d
000001b0: 615f e93c 2046 ed3c f960 15bd c718 d7bc
000001c0: c0d2 973c c897 63bc 17d1 b53d f6d9 b1bc
000001d0: 0906 42bc 7df9 11bd 9887 383d 6d8b eb3c
000001e0: 376b 60bc 2462 033d 1da6 113d 1224 4f3d
000001f0: 83ec 933c b613 7c3d 60e8 773c 96b4 133d
00000200: 6df1 2b3c e6a2 773d 66da f13b e68e d73c
00000210: 645c 173d b99c 3e3d 5ca2 1e3d 7966 513c
00000220: b0a7 013c d5e5 6dbc 5a12 82bd aa29 cfbd
00000230: b207 4f3d ae61 6e3d beee fcbc 9a33 803d
00000240: 8a28 ba3d 7fd9 0c3d e56b 9abb a54b 253c
00000250: 6e34 45bd 0877 0d3c a55e afbc e5a5 8b3b
00000260: 0079 ed3b a98e 87bc e28a 0f3d 874d bebc
00000270: 0017 463d 6801 72bd 0cd7 c23c 4a13 663d
00000280: 942e 5c3d ff3e 053c 7130 90bd a7a3 aa3d
00000290: 623b 8b3d 0ed6 503c d433 9abd 3e5c 2b3d
000002a0: e0d4 09bd eb76 f0bc 42b4 77bb 3d33 08bd
000002b0: e540 c83c 8a09 f13c fb9a 813c 1222 60bd
000002c0: cd99 913d dbec 08bd 98e2 39bd d3ab 9ebb
000002d0: a6a8 6d3d b243 de3c 208e c7bd b8b6 3fbd
000002e0: b975 ddbc f374 1e3c 5932 0fbd dd56 1c3d
000002f0: 5a10 20bd c772 05bd f2d5 e9bc 12ea 313c
00000300: b151 0f3d a08a aebd cf72 bd3a 6850 8abd
00000310: 8ddf dabc 9428 17bd b8b7 243c 540b 653d
00000320: 2422 ddbc 950f e23b 691a 573d 528f 6d3d
00000330: 4178 62bd 86a2 58bd d489 8cbc ba3e bf3d
00000340: 2c6a b2bd 7482 9e3c 4511 fe3c e5b8 4e3d
00000350: 8283 55bc 06c5 433d eb96 bebc ceb6 b03d
00000360: 1856 1dbc ba99 e4bd 6f7f 20bd 8c05 6fbc
00000370: 7893 93bb a3e0 a1bd 29ed e0bc 177c f6bc
00000380: 2845 343c 32d5 c23c 45d8 763c b73e 30bd
00000390: 06b3 2e3d b51d d6bc 0172 383d 016e 7ebd
000003a0: f54f e9bd 4029 3c3d df13 2f3d 9afe 613d
000003b0: 980a e03b 25c9 03bc 638e 60bd b08f 03bd
000003c0: 9afb d73d daf1 713d 9b58 1e3d 3d0e bb3b
000003d0: d593 013e 57cf 96bc 0ed4 023d 3967 0cbd
000003e0: 8d9f 49bd c4b1 b0bd 3a36 1ebd 53a0 fd3c
000003f0: bb17 93bd 1a1e 8e3d 0b2c d1ba 013a 22bd
0.091250435 -0.042658735 0.04052556 -0.00019004458 -0.02747317 -0.017098635 -0.004069818 -0.06043919
0.024576422 0.0011749357 0.031133845 0.043298326 -0.07287265 -0.022306425 -0.031561207 -0.0058910972
0.0015953011 -0.043368854 0.01019304 -0.0069613284 -0.05315054 -0.019070333 -0.055465564 0.014613905
0.021499708 -0.045164585 -0.06441505 -0.046231635 0.028049488 0.018540328 0.09783165 0.024361588
0.102837354 0.014083859 -0.01464865 -0.048948493 -0.03470776 0.0036824713 0.014531675 0.064235024
0.013741451 0.08287318 0.01514309 0.03351678 0.06527528 -0.028743023 0.021651689 0.08810152
0.046799466 0.011622408 0.022512704 0.057367515 0.036629256 0.039331406 0.003933144 -0.08366221
0.053904522 -0.05294718 -0.042488992 -0.056363117 0.049817875 -0.01435337 -0.07134909 -0.014921758
0.039233893 8.069006e-05 -0.014371367 0.054761354 -0.11162853 0.018130573 0.054422826 0.017910236
0.008767411 0.019406898 0.03968027 0.07300899 0.031600524 -0.0030901467 -0.016949462 -0.098893724
-0.023805123 -0.014434807 -0.01006359 0.059045363 -0.016293926 0.05095698 0.04914566 0.0570818
0.042366393 -0.055909343 0.059209567 -0.001758438 -0.01641274 -0.019839171 0.028641054 0.01816403
0.051504757 -0.051401734 0.054188374 -0.11857941 0.09572719 -0.04950217 -0.034119345 -0.051247995
0.017648224 0.05693534 -0.031134475 0.07863099 0.028487863 0.028964102 -0.036469433 -0.026256932
0.01853311 -0.013891168 0.08877771 -0.021710377 -0.011842259 -0.03563832 0.045051187 0.028753007
-0.013697437 0.032076016 0.03555881 0.05057151 0.018057114 0.061542235 0.015131086 0.036060892
0.010494572 0.060458086 0.0073807715 0.026313256 0.036953345 0.04653618 0.038729057 0.012780779
0.007913515 -0.014520128 -0.063511565 -0.10115369 0.05054445 0.058198623 -0.03087556 0.06259842
0.090897635 0.034387108 -0.004712569 0.010088836 -0.048145704 0.008634336 -0.021407435 0.0042617195
0.0072470903 -0.016547518 0.03504456 -0.023230327 0.04836178 -0.059083372 0.023784183 0.05617074
0.053755358 0.008132695 -0.070404895 0.083319955 0.06798436 0.012746347 -0.07529417 0.041836016
-0.03365028 -0.02935358 -0.003779665 -0.03325199 0.024445007 0.029423494 0.01582097 -0.054719992
0.07109413 -0.033429008 -0.045382112 -0.0048422604 0.058022164 0.027131889 -0.09743905 -0.046805114
-0.027033674 0.009671438 -0.034960125 0.038168777 -0.039078094 -0.032580163 -0.0285444 0.010859029
0.034990016 -0.08522534 0.0014453771 -0.067536175 -0.026717925 -0.036903933 0.010053568 0.055919006
-0.026993819 0.00689883 0.05251542 0.05799801 -0.055290464 -0.05288937 -0.017155565 0.09338136
-0.08711657 0.019349314 0.031014094 0.050469298 -0.013031842 0.047795318 -0.023265323 0.08628617
-0.009603046 -0.111621335 -0.03918403 -0.014588725 -0.0045036636 -0.07904174 -0.027456837 -0.030088468
0.011002816 0.0237833 0.015066211 -0.04302856 0.0426512 -0.026137212 0.045030598 -0.062116627
-0.11392204 0.045937777 0.04274356 0.055174448 0.0068372004 -0.008043562 -0.05482329 -0.032119453
0.10546036 0.05906854 0.03865872 0.0057084844 0.1265405 -0.018409414 0.031940512 -0.03427813
-0.049224425 -0.08627656 -0.038625933 0.030960238 -0.071822606 0.06939335 -0.001595856 -0.039606098
